…
          -inf -inf -inf -inf   0. -inf -inf -inf   0. -inf -inf -inf   0. -inf
          -inf -inf]
         [-inf -inf   0. -inf -inf -inf -inf -inf -inf -inf -inf -inf -inf -inf
          -inf -inf -inf -inf   0. -inf -inf -inf   0. -inf -inf -inf   0. -inf
          -inf -inf]
         [-inf -inf   0. -inf -inf -inf -inf -inf -inf -inf -inf -inf -inf -inf
          -inf -inf -inf -inf   0. -inf -inf -inf   0. -inf -inf -inf   0. -inf
          -inf -inf]], inf, (4, 30), float32)
policy:
    value: |-
        ActorCriticPolicy(
          (features_extractor): MultiAgentSelfAttentionExtractor(
            (agent_encoder): Sequential(
              (0): Linear(in_features=30, out_features=128, bias=True)
              (1): ReLU()
              (2): Linear(in_features=128, out_features=128, bias=True)
              (3): ReLU()
              (4): Linear(in_features=128, out_features=64, bias=True)
              (5): ReLU()
            )
            (query_proj): Linear(in_features=64, out_features=64, bias=True)
            (key_proj): Linear(in_features=64, out_features=64, bias=True)
            (value_proj): Linear(in_features=64, out_features=64, bias=True)
            (aggregator): Sequential(
              (0): Linear(in_features=256, out_features=32, bias=True)
              (1): ReLU()
              (2): Linear(in_features=32, out_features=32, bias=True)
              (3): ReLU()
            )
          )
          (pi_features_extractor): MultiAgentSelfAttentionExtractor(
            (agent_encoder): Sequential(
              (0): Linear(in_features=30, out_features=128, bias=True)
              (1): ReLU()
              (2): Linear(in_features=128, out_features=128, bias=True)
              (3): ReLU()
              (4): Linear(in_features=128, out_features=64, bias=True)
              (5): ReLU()
            )
            (query_proj): Linear(in_features=64, out_features=64, bias=True)
            (key_proj): Linear(in_features=64, out_features=64, bias=True)
            (value_proj): Linear(in_features=64, out_features=64, bias=True)
            (aggregator): Sequential(
              (0): Linear(in_features=256, out_features=32, bias=True)
              (1): ReLU()
              (2): Linear(in_features=32, out_features=32, bias=True)
              (3): ReLU()
            )
          )
          (vf_features_extractor): MultiAgentSelfAttentionExtractor(
            (agent_encoder): Sequential(
              (0): Linear(in_features=30, out_features=128, bias=True)
              (1): ReLU()
              (2): Linear(in_features=128, out_features=128, bias=True)
              (3): ReLU()
              (4): Linear(in_features=128, out_features=64, bias=True)
              (5): ReLU()
            )
            (query_proj): Linear(in_features=64, out_features=64, bias=True)
            (key_proj): Linear(in_features=64, out_features=64, bias=True)
            (value_proj): Linear(in_features=64, out_features=64, bias=True)
            (aggregator): Sequential(
              (0): Linear(in_features=256, out_features=32, bias=True)
              (1): ReLU()
              (2): Linear(in_features=32, out_features=32, bias=True)
              (3): ReLU()
            )
          )
          (mlp_extractor): MlpExtractor(
            (policy_net): Sequential(
              (0): Linear(in_features=32, out_features=64, bias=True)
              (1): Tanh()
              (2): Linear(in_features=64, out_features=64, bias=True)
              (3): Tanh()
            )
            (value_net): Sequential(
              (0): Linear(in_features=32, out_features=64, bias=True)
              (1): Tanh()
              (2): Linear(in_features=64, out_features=64, bias=True)
              (3): Tanh()
            )
          )
          (action_net): Linear(in_features=64, out_features=16, bias=True)
          (value_net): Linear(in_features=64, out_features=1, bias=True)
        )
policy_class:
    value: <class 'stable_baselines3.common.policies.ActorCriticPolicy'>
policy_kwargs:
    value: '{''features_extractor_class'': <class ''multi_agent_extractors.MultiAgentSelfAttentionExtractor''>, ''features_extractor_kwargs'': {''features_dim'': 32}}'
rollout_buffer:
    value: <stable_baselines3.common.buffers.RolloutBuffer object at 0x16deef2b0>
…
