{"format": "torch", "nodes": [{"name": "features_extractor", "id": 6429462480, "class_name": "MultiAgentSelfAttentionExtractor(\n  (agent_encoder): Sequential(\n    (0): Linear(in_features=30, out_features=128, bias=True)\n    (1): ReLU()\n    (2): Linear(in_features=128, out_features=128, bias=True)\n    (3): ReLU()\n    (4): Linear(in_features=128, out_features=64, bias=True)\n    (5): ReLU()\n  )\n  (query_proj): Linear(in_features=64, out_features=64, bias=True)\n  (key_proj): Linear(in_features=64, out_features=64, bias=True)\n  (value_proj): Linear(in_features=64, out_features=64, bias=True)\n  (aggregator): Sequential(\n    (0): Linear(in_features=256, out_features=32, bias=True)\n    (1): ReLU()\n    (2): Linear(in_features=32, out_features=32, bias=True)\n    (3): ReLU()\n  )\n)", "parameters": [["agent_encoder.0.weight", [128, 30]], ["agent_encoder.0.bias", [128]], ["agent_encoder.2.weight", [128, 128]], ["agent_encoder.2.bias", [128]], ["agent_encoder.4.weight", [64, 128]], ["agent_encoder.4.bias", [64]], ["query_proj.weight", [64, 64]], ["query_proj.bias", [64]], ["key_proj.weight", [64, 64]], ["key_proj.bias", [64]], ["value_proj.weight", [64, 64]], ["value_proj.bias", [64]], ["aggregator.0.weight", [32, 256]], ["aggregator.0.bias", [32]], ["aggregator.2.weight", [32, 32]], ["aggregator.2.bias", [32]]], "output_shape": [[1, 32]], "num_parameters": [3840, 128, 16384, 128, 8192, 64, 4096, 64, 4096, 64, 4096, 64, 8192, 32, 1024, 32]}, {"name": "mlp_extractor", "id": 6429461856, "class_name": "MlpExtractor(\n  (policy_net): Sequential(\n    (0): Linear(in_features=32, out_features=64, bias=True)\n    (1): Tanh()\n    (2): Linear(in_features=64, out_features=64, bias=True)\n    (3): Tanh()\n  )\n  (value_net): Sequential(\n    (0): Linear(in_features=32, out_features=64, bias=True)\n    (1): Tanh()\n    (2): Linear(in_features=64, out_features=64, bias=True)\n    (3): Tanh()\n  )\n)", "parameters": [["policy_net.0.weight", [64, 32]], ["policy_net.0.bias", [64]], ["policy_net.2.weight", [64, 64]], ["policy_net.2.bias", [64]], ["value_net.0.weight", [64, 32]], ["value_net.0.bias", [64]], ["value_net.2.weight", [64, 64]], ["value_net.2.bias", [64]]], "output_shape": [[1, 64], [1, 64]], "num_parameters": [2048, 
…
