…
           1.  1.  1.  1.  1.  1.  1.  1.  1.  1.  1.  1.  1.  1.  1.  1.  1.  1.
           1.  1.  1. inf inf inf inf inf inf 10.  1.]
         [inf inf inf inf inf inf inf inf inf inf inf inf  1.  1.  1.  1.  1.  1.
           1.  1.  1.  1.  1.  1.  1.  1.  1.  1.  1.  1.  1.  1.  1.  1.  1.  1.
           1.  1.  1.  1.  1.  1.  1.  1.  1.  1.  1.  1.  1.  1.  1.  1.  1.  1.
           1.  1.  1. inf inf inf inf inf inf 10.  1.]], (4, 65), float32)
policy:
    value: |-
        ActorCriticPolicy(
          (features_extractor): MultiAgentMatrixExtractor(
            (agent_encoder): Sequential(
              (0): Linear(in_features=65, out_features=128, bias=True)
              (1): ReLU()
              (2): LayerNorm((128,), eps=1e-05, elementwise_affine=True)
              (3): Dropout(p=0.1, inplace=False)
              (4): Linear(in_features=128, out_features=128, bias=True)
              (5): ReLU()
              (6): LayerNorm((128,), eps=1e-05, elementwise_affine=True)
              (7): Dropout(p=0.1, inplace=False)
              (8): Linear(in_features=128, out_features=128, bias=True)
              (9): ReLU()
              (10): LayerNorm((128,), eps=1e-05, elementwise_affine=True)
              (11): Linear(in_features=128, out_features=64, bias=True)
              (12): ReLU()
            )
            (aggregator): Sequential(
              (0): Linear(in_features=256, out_features=32, bias=True)
              (1): ReLU()
              (2): LayerNorm((32,), eps=1e-05, elementwise_affine=True)
              (3): Dropout(p=0.1, inplace=False)
              (4): Linear(in_features=32, out_features=32, bias=True)
              (5): ReLU()
            )
          )
          (pi_features_extractor): MultiAgentMatrixExtractor(
            (agent_encoder): Sequential(
              (0): Linear(in_features=65, out_features=128, bias=True)
              (1): ReLU()
              (2): LayerNorm((128,), eps=1e-05, elementwise_affine=True)
              (3): Dropout(p=0.1, inplace=False)
              (4): Linear(in_features=128, out_features=128, bias=True)
              (5): ReLU()
              (6): LayerNorm((128,), eps=1e-05, elementwise_affine=True)
              (7): Dropout(p=0.1, inplace=False)
              (8): Linear(in_features=128, out_features=128, bias=True)
              (9): ReLU()
              (10): LayerNorm((128,), eps=1e-05, elementwise_affine=True)
              (11): Linear(in_features=128, out_features=64, bias=True)
              (12): ReLU()
            )
            (aggregator): Sequential(
              (0): Linear(in_features=256, out_features=32, bias=True)
              (1): ReLU()
              (2): LayerNorm((32,), eps=1e-05, elementwise_affine=True)
              (3): Dropout(p=0.1, inplace=False)
              (4): Linear(in_features=32, out_features=32, bias=True)
              (5): ReLU()
            )
          )
          (vf_features_extractor): MultiAgentMatrixExtractor(
            (agent_encoder): Sequential(
              (0): Linear(in_features=65, out_features=128, bias=True)
              (1): ReLU()
              (2): LayerNorm((128,), eps=1e-05, elementwise_affine=True)
              (3): Dropout(p=0.1, inplace=False)
              (4): Linear(in_features=128, out_features=128, bias=True)
              (5): ReLU()
              (6): LayerNorm((128,), eps=1e-05, elementwise_affine=True)
              (7): Dropout(p=0.1, inplace=False)
              (8): Linear(in_features=128, out_features=128, bias=True)
              (9): ReLU()
              (10): LayerNorm((128,), eps=1e-05, elementwise_affine=True)
              (11): Linear(in_features=128, out_features=64, bias=True)
              (12): ReLU()
            )
            (aggregator): Sequential(
              (0): Linear(in_features=256, out_features=32, bias=True)
              (1): ReLU()
              (2): LayerNorm((32,), eps=1e-05, elementwise_affine=True)
              (3): Dropout(p=0.1, inplace=False)
              (4): Linear(in_features=32, out_features=32, bias=True)
              (5): ReLU()
            )
          )
          (mlp_extractor): MlpExtractor(
            (policy_net): Sequential(
              (0): Linear(in_features=32, out_features=256, bias=True)
              (1): Tanh()
              (2): Linear(in_features=256, out_features=256, bias=True)
              (3): Tanh()
            )
            (value_net): Sequential(
              (0): Linear(in_features=32, out_features=256, bias=True)
              (1): Tanh()
              (2): Linear(in_features=256, out_features=256, bias=True)
              (3): Tanh()
            )
          )
          (action_net): Linear(in_features=256, out_features=12, bias=True)
          (value_net): Linear(in_features=256, out_features=1, bias=True)
        )
policy_class:
    value: <class 'stable_baselines3.common.policies.ActorCriticPolicy'>
policy_kwargs:
    value: '{''features_extractor_class'': <class ''multi_agent_extractors.MultiAgentMatrixExtractor''>, ''features_extractor_kwargs'': {''features_dim'': 32}, ''net_arch'': [{''pi'': [256, 256], ''vf'': [256, 256]}]}'
rollout_buffer:
    value: <stable_baselines3.common.buffers.RolloutBuffer object at 0x135003490>
…
